converted_modelo_juan.tflite (tflite, 970412 bytes, 12 tensors)

sequential/conv2d/BiasAdd/ReadVariableOp/resource f4 [32]
0.0006678728 -0.0007907776 -6.0355113e-05 0.0010335507 -0.0005508629 -0.0002825546 -0.00017147722 0.0005313352
-0.00038386733 -0.0004225577 -2.7422942e-05 -0.00036232176 0.00045821493 0.0010882248 -0.0007864299 0.00092536974
-0.0006180595 0.00079045515 0.00042317258 -0.00017038279 0.00034348486 -0.0005713615 -0.0010555085 -0.0002547127
-0.00023462695 0.000800195 -0.0004079173 -0.00016285571 0.0012532012 -0.000109835164 -0.00015928646 0.00037605202
00000000: 2f14 2f3a 304c 4fba cf25 7db8 3578 873a
00000010: c967 10ba d623 94b9 91ce 33b9 4d49 0b3a
00000020: cd41 c9b9 bc8a ddb9 520a e6b7 01f6 bdb9
00000030: 913c f039 c4a2 8e3a 6b28 4eba 8394 723a
00000040: 4505 22ba 8c36 4f3a 43dd dd39 c8a8 32b9
00000050: c215 b439 6cc7 15ba fd58 8aba f68a 85b9
00000060: 3106 76b9 2dc4 513a bcdd d5b9 3fc4 2ab9
00000070: 7442 a43a 4e57 e6b8 2206 27b9 d928 c539

sequential/conv2d_1/BiasAdd/ReadVariableOp/resource f4 [64]
0.0006583704 -2.3242475e-05 -0.0007362029 -0.000360336 0.00094152533 0.0008850387 0.00082481885 -0.00018349818
-0.000531706 -0.00012762434 -0.00054854143 0.00027570108 0.00033373505 -4.071051e-05 -0.0006548773 -8.758968e-05
-0.00048614317 0.00093375065 -6.524818e-05 -0.0010482152 0.0010308599 -8.996662e-06 0.0005810283 0.0010022649
0.0009347945 0.0010480882 -0.0010348824 5.4212538e-05 0.0010088846 0.0001044977 0.00014871165 -0.0009519115
0.00021536925 0.0004559799 0.00046524423 0.00075103174 0.00029425736 -0.0006423774 -0.0008155012 3.7467198e-06
-9.631429e-05 -0.00057272613 -0.00048816862 -0.0001643403 -0.00040337068 0.00095888553 0.00025332594 0.0003042637
-0.001216728 -0.0007225917 -0.0010071573 -0.0010569835 0.0006049217 0.0009409308 0.00020455928 0.00022283767
0.00041655885 -3.993954e-05 -0.00092827104 0.0002834041 -0.00087348267 -0.0006808169 -0.00023912427 -0.00048143286
00000000: 7d96 2c3a d6f8 c2b7 befd 40ba 7beb bcb9
00000010: b2d0 763a f101 683a a838 583a 6b69 40b9
00000020: 3062 0bba e6d2 05b9 fecb 0fba f98b 9039
00000030: 29f9 ae39 94c0 2ab8 12ac 2bba 5ab0 b7b8
00000040: 08e1 feb9 f2c6 743a dad5 88b8 4464 89ba
00000050: eb1d 873a 5ef0 16b7 2650 183a 6e5e 833a
00000060: ff0c 753a 0160 893a e4a4 87ba 4562 6338
00000070: 8d3c 843a c725 db38 7bef 1b39 b389 79ba
00000080: bed4 6139 9610 ef39 06ec f339 e3e0 443a
00000090: 8e46 9a39 3865 28ba 5cc7 55ba 2870 7b36
000000a0: 57fc c9b8 0023 16ba e2f0 ffb9 c352 2cb9
000000b0: 7f7b d3b9 b85d 7b3a d5d0 8439 9585 9f39
000000c0: 9e7a 9fba 4f6c 3dba 9702 84ba 7b8a 8aba
000000d0: 9c93 1e3a cca8 763a f77e 5639 88a9 6939
000000e0: 9565 da39 c184 27b8 3757 73ba db95 9439
000000f0: 6efa 64ba d978 32ba 6fbd 7ab9 d368 fcb9

sequential/conv2d_2/BiasAdd/ReadVariableOp/resource f4 [128]
3.7377416e-05 -1.8756123e-06 -0.000358245 -0.00081237947 0.0008317879 0.0008226764 0.00054622005 -8.931491e-05
-0.00089874165 0.000672133 -0.0007566638 -0.00032267443 0.0007640042 -0.00025150608 -0.0010278106 -0.00048396137
1.3429887e-05 0.00073207775 -0.0009332994 -0.00093161414 -0.0007081403 -0.0008348194 0.00016598153 -0.0010859149
-0.0002329294 -3.9691608e-05 -0.000527796 0.00086180394 -0.0007829979 0.0007522971 0.00017400859 -0.0001411021
-0.00054721587 -0.00064218417 -0.00038001515 0.00067563634 -0.0005213836 1.9452315e-05 0.00031469864 0.00026069794
0.00031178512 -0.00014693044 -0.0007609914 -0.00027129622 -0.0007862049 0.00077756454 -0.00024888886 -0.00016037021
0.0005695742 0.00067016366 -0.0003973044 -0.00010426606 0.0009103669 0.0010266047 -0.0009510727 0.00026316257
0.0006027636 -0.00096371915 0.00035747493 -0.00064109365 0.00029168846 5.2717376e-05 -0.00018079346 0.0009820954
-0.0007729871 0.00015808728 0.000612629 7.5681804e-05 -0.0006400161 8.513055e-05 -0.00034531098 -7.750407e-05
-0.00092381466 0.00096330204 0.00085716555 -5.8848627e-06 0.00076299143 -0.0004732504 -0.0008566685 -0.00071240566
-0.0007260317 0.0005701168 -0.0010763509 0.0004932871 0.00046320248 -0.0009874249 -0.00053763815 -2.019043e-05
-0.0007383665 0.0010219215 0.00050912815 -0.00048672175 0.00092256896 0.00029663424 -0.000841596 0.00038577383
-0.0005131998 -0.00028326892 -0.00055575155 -0.00045224227 0.00025085828 -0.00017512041 -0.000512733 0.0010136758
3.9116363e-05 -0.0008255837 0.00077113946 -0.0008003828 -0.00029259024 -0.00068520854 -0.000665803 0.00020218047
-0.00062362844 -0.00035265114 -0.00056616496 0.0011829366 -0.00046283402 -0.00057297805 0.0010394839 0.0004948367
0.0004891339 0.00035111097 0.000794375 0.0007999911 -0.00031115641 1.40053e-05 -0.00028210972 -0.000884598
00000000: b2c5 1c38 8cbd fbb5 d4d2 bbb9 ddf5 54ba
00000010: 570c 5a3a e1a8 573a 3530 0f3a 944e bbb8
00000020: 8899 6bba 1532 303a d95a 46ba a12c a9b9
00000030: 7447 483a 93dc 83b9 9ab7 86ba 32bc fdb9
00000040: ed50 6137 e8e8 3f3a aaa8 74ba 9137 74ba
00000050: 7ea2 39ba c8d7 5aba 540b 2e39 4255 8eba
00000060: 823e 74b9 8a7a 26b8 ca5b 0aba afea 613a
00000070: 1942 4dba ce35 453a 1376 3639 cef4 13b9
00000080: 0973 0fba 4058 28ba c53c c7b9 301d 313a
00000090: 76ad 08ba 872d a337 23fe a439 49ae 8839
000000a0: 1777 a339 5711 1ab9 457d 47ba c33c 8eb9
000000b0: 5119 4eba 79d5 4b3a 4c7d 82b9 0d29 28b9
000000c0: 7a4f 153a ecad 2f3a 4b4d d0b9 6aa9 dab8
000000d0: b0a5 6e3a 238f 863a 6951 79ba 15f9 8939
000000e0: c802 1e3a 19a2 7cba 796b bb39 110f 28ba
000000f0: c3ed 9839 da1c 5d38 6093 3db9 a7b9 803a
00000100: 49a2 4aba 3bc4 2539 d698 203a 5cb7 9e38
00000110: c1c6 27ba 1e88 b238 db0a b5b9 ae89 a2b8
00000120: 272c 72ba 1b86 7c3a 68b3 603a 9676 c5b6
00000130: 7d03 483a 981e f8b9 0d92 60ba bcc0 3aba
00000140: 2a53 3eba e473 153a 5814 8dba f04f 013a
00000150: fcd9 f239 7b6c 81ba 49f0 0cba 9e5e a9b7
00000160: f08e 41ba fff1 853a 0377 053a b02e ffb9
00000170: 8ed8 713a 9385 9b39 8d9e 5cba b041 ca39
00000180: 4188 06ba b683 94b9 dbaf 11ba ee1a edb9
00000190: a185 8339 87a0 37b9 ee68 06ba 51dd 843a
000001a0: e010 2438 fc6b 58ba 4b26 4a3a c8d0 51ba
000001b0: cc66 99b9 919f 33ba 4889 2eba 6800 5439
000001c0: ff7a 23ba 09e4 b8b9 b06a 14ba c40c 9b3a
000001d0: 88a8 f2b9 e833 16ba 4b3f 883a eeb7 013a
000001e0: 3839 003a 5115 b839 9b3d 503a 7eb6 513a
000001f0: b522 a3b9 4ef8 6a37 20e8 93b9 5ee4 67ba

sequential/conv2d_3/BiasAdd/ReadVariableOp/resource f4 [128]
-0.0013311201 -5.5181565e-05 -0.00019541786 0.0005020809 0.00017705433 0.00022044351 -0.00082738424 -0.0010056805
-0.00095057284 -0.00013327535 -0.0013142993 0.00023848764 0.00060786476 0.00034477533 0.00021376158 -0.00086223544
-0.00072389987 0.0011502589 -0.0002271858 -0.00043085983 -0.0005602903 0.00024454077 0.00012324013 0.00079507194
-0.00030321287 0.0006257051 -0.00035264366 -0.000878384 -0.00051161944 0.0002749909 -0.00050802843 -7.649021e-05
-0.00070644653 0.0009225445 -0.0008833341 -0.0006194611 0.001126503 -4.1169293e-05 0.000763753 0.00025399387
0.0006114603 0.00020803681 -0.0002714475 0.00011095665 0.0007788897 0.0 -0.00020478749 4.099874e-05
-0.00035183146 -7.496071e-05 0.00053794874 -0.00021597653 0.00037349804 -0.00034902693 0.00068854506 7.7588804e-05
0.00034548144 0.0009776824 -2.6744523e-05 -0.0007381938 -0.00031951015 -0.0004932735 0.00041331374 0.0004028946
-0.00025018543 0.0002704742 -0.0009684573 0.00076459575 0.0005080049 0.00041673318 -0.00016246068 -0.0004419079
-0.000868138 -0.00023630916 0.0007727469 -0.00019905632 0.00018499134 -7.034178e-05 -0.00086814736 0.0005163369
0.00071859686 0.00047666536 0.00046140997 -0.0010143033 -0.00022652395 0.00010828255 -6.5659275e-05 -0.00037297455
0.00043580733 -0.00011143418 0.00023326743 -0.0007975354 0.0 0.0009260407 0.0004757288 -0.00045864438
-0.00010582589 -0.000616846 0.0007624402 -0.00019813603 0.00034352366 0.00040824673 0.00076878327 -0.00036870906
0.00064017175 0.0008977072 7.382783e-05 -0.00044601917 0.00033300833 -0.00014272533 6.300258e-05 -0.0008007376
0.00074867596 0.00042249425 -0.00037472617 -0.00015627038 0.00027551394 0.00095383154 0.00018139441 0.00022528142
-0.00091582857 -0.0005279046 0.00049813493 -0.0005912649 0.001070199 -0.00082629477 0.00079205126 0.000345638
00000000: fb78 aeba c172 67b8 15e9 4cb9 149e 033a
00000010: a9a7 3939 db26 6739 d1e4 58ba 0ad1 83ba
00000020: dd2f 79ba d4bf 0bb9 9144 acba 8a12 7a39
00000030: 1d59 1f3a f6c2 b439 3025 6039 a407 62ba
00000040: 19c4 3dba 49c4 963a b938 6eb9 07e5 e1b9
00000050: 72e0 12ba b535 8039 053a 0139 606c 503a
00000060: 8bf8 9eb9 5c06 243a 08e3 b8b9 5a43 66ba
00000070: 331e 06ba a72c 9039 362d 05ba 5e69 a0b8
00000080: d330 39ba ead6 713a 8c8f 67ba 5563 22ba
00000090: 2ba7 933a 31ad 2cb8 9936 483a 7b2a 8539
000000a0: 684a 203a 7524 5a39 1151 8eb9 66b1 e838
000000b0: 672e 4c3a 0000 0000 39bc 56b9 10f6 2b38
000000c0: 0576 b8b9 3a34 9db8 2105 0d3a c277 62b9
000000d0: 0fd2 c339 9afd b6b9 7a7f 343a 2cb7 a238
000000e0: bc21 b539 9425 803a 6d59 e0b7 5983 41ba
000000f0: ed83 a7b9 064f 01ba 08b2 d839 993b d339
00000100: 522b 83b9 6fce 8d39 12e0 7dba 276f 483a
00000110: a22b 053a fb7c da39 355a 2ab9 e0af e7b9
00000120: c193 63ba c2c9 77b9 2b92 4a3a c6b9 50b9
00000130: 3cfa 4139 7584 93b8 6294 63ba c85a 073a
00000140: 3860 3c3a f1e8 f939 66e9 f139 5ff2 84ba
00000150: 0f87 6db9 c015 e338 8eb2 89b8 cc8b c3b9
00000160: 127d e439 c5b1 e9b8 4099 7439 b211 51ba
00000170: 0000 0000 8ac1 723a 3d6b f939 3576 f0b9
00000180: d8ee ddb8 d6b3 21ba 7fde 473a bcc2 4fb9
00000190: f71a b439 f309 d639 2c88 493a 4b4f c1b9
000001a0: 33d1 273a 1c54 6b3a 04d4 9a38 aed7 e9b9
000001b0: 9f97 ae39 8aa8 15b9 4120 8438 97e8 51ba
000001c0: cb42 443a 3882 dd39 e576 c4b9 83dc 23b9
000001d0: db72 9039 8d0a 7a3a b134 3e39 8539 6c39
000001e0: 3714 70ba 1463 0aba 4595 023a 1eff 1aba
000001f0: eb45 8c3a b49b 58ba a9a1 4f3a bf36 b539

sequential/conv2d_4/BiasAdd/ReadVariableOp/resource f4 [7]
-0.00057570875 0.0008574017 -0.00085351797 -0.0006662786 0.0010064115 0.0011089018 -0.0007686394
00000000: 29eb 16ba 41c3 603a 9fbe 5fba 33a9 2eba
00000010: 91e9 833a 9258 913a 847e 49ba

sequential/conv2d_5/BiasAdd/ReadVariableOp/resource f4 [3]
-0.0005252345 -0.0009928612 -0.0007396827
00000000: e4af 09ba e522 82ba 44e7 41ba

sequential/conv2d/Conv2D f4 [32, 3, 3, 1]
0.06670267 0.11409781 0.038794193 0.07488357 0.018013824 0.04491095 0.1051445 -0.0018078914
-0.063110985 0.13439503 0.04998447 -0.09646843 -0.12760405 0.12801443 0.018775003 0.002746494
-0.08966215 -0.1337822 0.049754772 -0.061637484 0.11767447 -0.054086056 0.11111409 -0.02692342
-0.10736056 0.11510448 0.1102959 -0.11390115 0.015417565 -0.0634665 0.12723786 -0.12327365
0.042163886 -0.026140476 -0.06463111 0.057414167 0.058982152 0.13289204 0.07239025 0.10977295
-0.14164953 -0.12556453 -0.08734217 0.038477242 -0.026308903 0.110168174 0.091643386 0.003927955
-0.025665885 -0.08823683 -0.054145057 0.04982474 0.05622918 -0.12177541 0.06270903 -0.043333456
-0.038647726 -0.06777638 0.097000845 -0.09962483 0.12964585 -0.056092933 -0.12697981 -0.08507538
-0.13554618 0.05541065 0.070257835 0.1177035 0.06459951 0.026097259 -0.07665084 -0.05131061
0.08742524 0.031386957 -0.0531825 -0.058972992 -0.0045517017 0.054151293 0.123800166 -0.103861704
-0.12866113 -0.068901405 0.110344276 0.092269555 0.08720286 -0.085280344 0.13971834 -0.10920348
-0.013473465 0.13177547 -0.10227073 0.043754846 0.08840063 -0.006165735 -0.119980454 -0.12486762
0.058196966 0.030594552 0.03390791 -0.09933742 0.11371608 -0.12636076 0.12251405 -0.018880665
0.14043753 -0.013244941 -0.059322476 0.013896595 -0.13224588 0.12682156 0.04518973 0.1325514
0.09932185 -0.038642455 0.07472295 -0.13873683 0.046164755 0.13620089 0.12522328 0.12717937
0.021783441 0.06539541 -0.06230782 0.0064160516 -0.13247433 0.030598976 0.022178048 -0.06924144
-0.0719692 0.130475 0.08621389 -0.012019024 0.0133665055 0.105311766 0.13302888 -0.12442197
-0.11549584 -0.10786908 -0.05720786 0.03274433 0.043046787 0.075272486 0.061587837 0.029524338
0.052320782 0.038432725 -0.068461336 -0.0864307 0.14063564 -0.10271636 0.03773069 0.10211248
0.020895205 0.0022765924 -0.041770596 0.028882038 -0.13841684 0.054223564 -0.08519697 0.119089335
0.09118635 0.030689761 -0.10119383 -0.105057254 -0.0028628 -0.018128678 0.0812555 0.009090569
0.025997005 0.04860427 0.014357563 -0.015791351 0.109236 0.07685424 -0.105111904 0.04806337
-0.071179956 -0.008753626 0.042930394 -0.011716399 0.13895367 0.08462526 0.019197287 0.07020559
-0.062691234 0.023738112 -0.1179343 -0.015198885 -0.113104574 0.11158776 -0.09330733 -0.002941799
0.08770767 -0.059964377 0.068233386 -0.01590223 0.03346629 -0.039110366 0.028487898 -0.050303087
0.093025014 -0.04684657 -0.06950332 0.13712236 0.12215346 0.0145442085 0.055095024 0.08449794
0.09550085 -0.1105228 -0.08825484 -0.10794382 -0.07950518 0.08440378 0.069166794 -0.08935713
0.037768617 0.009029122 0.04026207 -0.12859483 0.05501165 -0.10359926 -0.015279051 -0.120291024
-0.006739892 0.062048182 0.032850355 0.08737724 0.13435498 -0.067164384 -0.053854924 0.119564205
-0.024517657 0.041360166 0.121463016 -0.13686031 -0.018196605 -0.09570898 -0.12945515 -0.029003147
0.11227364 0.13918519 -0.13649152 0.04707601 -0.11219916 -0.09778713 0.11290741 -0.091249175
-0.00577035 0.008297248 -0.039410677 -0.09963917 0.121635236 0.110213816 -0.070985354 0.005898287
00000000: 699b 883d 1dac e93d a9e6 1e3d 8f5c 993d
00000010: ba91 933c 8bf4 373d 0056 d73d c5f6 ecba
00000020: 5540 81bd da9e 093e 84bc 4c3d 3d91 c5bd
00000030: a3aa 02be 3716 033e 09ce 993c 86fe 333b
00000040: caa0 b7bd 33fe 08be a9cb 4b3d 9677 7cbd
00000050: 50ff f03d 5789 5dbd c98f e33d 818e dcbc
00000060: dadf dbbd e6bb eb3d d1e2 e13d 0245 e9bd
00000070: f499 7c3c b9fa 81bd a44a 023e e576 fcbd
00000080: 0ab4 2c3d 8d24 d6bc 515d 84bd 1e2b 6b3d
00000090: 4597 713d da14 083e 5741 943d a4d0 e03d
000000a0: 930c 11be fd93 00be 74e0 b2bd 509a 1d3d
000000b0: c585 d7bc da9f e13d 87af bb3d 13b6 803b
000000c0: 4341 d2bc 83b5 b4bd 35c7 5dbd 0715 4c3d
000000d0: 9250 663d 6365 f9bd 986d 803d 6c7e 31bd
000000e0: 144d 1ebd 58ce 8abd 61a8 c63d 1a08 ccbd
000000f0: e2c1 043e b4c1 65bd ff06 02be 003c aebd
00000100: 9ecc 0abe 47f6 623d 57e3 8f3d 880e f13d
00000110: bf4c 843d ebc9 d53c 1efb 9cbd 132b 52bd
00000120: 010c b33d 9c8f 003d e5d5 59bd aa8d 71bd
00000130: 7126 95bb bfcd 5d3d f18a fd3d 72b5 d4bd
00000140: bebf 03be 2e1c 8dbd 2efc e13d d2f7 bc3d
00000150: 6a97 b23d 76a7 aebd 5312 0f3e 13a6 dfbd
00000160: cfbf 5cbc 26f0 063e 5173 d1bd 4838 333d
00000170: 640b b53d ef09 cabb 50b8 f5bd 98ba ffbd
00000180: f15f 6e3d 6da1 fa3c 05e3 0a3d 6b71 cbbd
00000190: fae3 e83d b764 01be a5e8 fa3d a0ab 9abc
000001a0: dbce 0f3e 4f01 59bc 20fc 72bd 8bae 633c
000001b0: 776b 07be 83dd 013e de18 393d 8ebb 073e
000001c0: 4169 cb3d 8d47 1ebd 5908 993d 0711 0ebe
000001d0: 4117 3d3d 3f78 0b3e 883a 003e 4f3b 023e
000001e0: 3073 b23c 07ee 853d 7c36 7fbd be3d d23b
000001f0: 5aa7 07be b4aa fa3c bdae b53c 75ce 8dbd
00000200: 9764 93bd 3d9b 053e e890 b03d 71eb 44bc
00000210: 30ff 5a3c b2ad d73d b938 083e f2d0 febd
00000220: 1589 ecbd 77ea dcbd ca52 6abd eb1e 063d
00000230: d451 303d 7628 9a3d 8743 7c3d 06dd f13c
00000240: 514e 563d a26b 1d3d 7535 8cbd 9402 b1bd
00000250: ca02 103e f45c d2bd 7f8b 1a3d 5920 d13d
00000260: 6c2c ab3c e232 153b a517 2bbd 069a ec3c
00000270: 25bd 0dbe 8719 5e3d c07b aebd 1ce5 f33d
00000280: e9bf ba3d 1869 fb3c b63e cfbd 4228 d7bd
00000290: d09d 3bbb 9882 94bc 4969 a63d 9cf0 143c
000002a0: acf7 d43c 4515 473d fc3b 6b3c dd5c 81bc
000002b0: 20b7 df3d c165 9d3d e944 d7bd 19de 443d
000002c0: ccc6 91bd 5e6b 0fbc c8d7 2f3d 24f6 3fbc
000002d0: df49 0e3e 0250 ad3d a143 9d3c f3c7 8f3d
000002e0: 4364 80bd 6e76 c23c 8a87 f1bd bf04 79bc
000002f0: 5fa3 e7bd 2088 e43d ea17 bfbd 32cb 40bb
00000300: 14a0 b33d 359d 75bd f2bd 8b3d 6545 82bc
00000310: f313 093d 3132 20bd 745f e93c 9c0a 4ebd
00000320: e683 be3d 30e2 3fbd c257 8ebd ce69 0c3e
00000330: 982b fa3d d54a 6e3c 52ab 613d 420d ad3d
00000340: f395 c33d c759 e2bd f4be b4bd a611 ddbd
00000350: 9dd3 a2bd e4db ac3d 52a7 8d3d df00 b7bd
00000360: 44b3 1a3d e2ee 133c d7e9 243d 5dae 03be
00000370: e553 613d d92b d4bd fc54 7abc 245b f6bd
00000380: 50da dcbb 3c26 7e3d 188e 063d d7f2 b23d
00000390: 5a94 093e 7b8d 89bd fb96 5cbd 14de f43d
000003a0: 41d9 c8bc 4769 293d 9ac1 f83d 1c25 0cbe
000003b0: 0c11 95bc 1203 c4bd e48f 04be 0298 edbc
000003c0: b9ef e53d 9086 0e3e 6fc4 0bbe c6d2 403d
000003d0: acc8 e5bd 9e44 c8bd 003c e73d d9e0 babd
000003e0: 3415 bdbb 2ef1 073c 176d 21bd 9f0f ccbd
000003f0: e51b f93d c8b7 e13d c560 91bd 6b46 c13b

sequential/conv2d_1/Conv2D f4 [64, 3, 3, 32]
0.011208656 0.026331432 0.010709 -0.041513447 -0.07503822 -0.056027867 -0.033821907 -0.08014125
0.005239313 0.07677568 0.010195895 0.0669585 0.0780798 -0.051507737 -0.0600498 0.042158954
0.08172501 0.014639153 0.019182486 0.056399662 0.06643464 0.05590426 0.045677654 0.07619701
0.0054051573 0.00634275 -0.07036556 0.053765494 0.018642114 -0.030854343 0.00053653336 0.0011601312
0.044139363 0.023932058 -0.025412032 0.038024295 -0.042004086 -0.023858571 -0.026064325 -0.01528291
0.03151932 -0.010233144 0.0024794934 0.07563182 0.012417097 -0.055933565 0.024457222 0.04049673
0.06382347 -0.06694309 -0.017790204 0.07259942 0.024081785 0.056143593 0.0390033 0.020163206
0.056689456 0.032944385 -0.020593842 -0.034270372 0.018617248 -0.034150317 -0.038552683 -0.04307772
0.06474354 -0.03567972 -0.04671955 0.024942469 -0.07367777 0.05227986 0.074443385 -0.052897952
-0.054425105 0.016517328 0.060289353 -0.045215804 0.04570261 -0.07414431 0.011260581 -0.07289021
0.0635949 -0.04060313 0.07607551 0.04701511 -0.061926976 0.012443472 -0.02161234 0.05825685
-0.041796215 0.062536195 -0.051864542 0.047768496 0.020291688 -0.042069297 0.040093973 0.060998324
-0.046100415 0.04975101 -0.0010107595 -0.04810241 0.050691847 -0.0271502 -0.019823484 -0.008950037
-0.01115714 -0.045034733 0.07876725 -0.023125844 0.024736723 -0.04439557 0.014715441 -0.012820059
0.06900004 -0.06857922 0.019005733 -0.025573323 -0.032582946 -0.07090419 -0.03994948 0.047393393
-0.08054037 0.051702667 -0.05627551 -0.024359135 -0.03103881 0.041027732 0.030945975 0.066610835
0.08266318 -0.077731974 -0.0141387945 -0.007204601 0.060770065 0.06931022 0.023297915 -0.079122454
0.059389573 -0.02385919 0.010938265 0.07072794 -0.018640447 0.03771856 0.0787494 0.046156038
0.06123682 -0.06395685 -0.06673867 0.048281398 0.07090447 -0.050630488 -0.031086221 -0.054712057
-0.030051617 -0.07844201 0.07373305 -0.043354414 -0.075802 -0.040151205 0.0063485927 -0.07602184
9.923232e-05 0.021071032 0.06784673 -0.01448571 0.061688203 0.03932521 -0.06658996 0.033738017
0.023963345 0.016056556 -0.060020458 0.052947003 -0.023212578 -0.041779008 0.04344523 0.06731873
0.07393738 -0.07576483 -0.059310272 -0.011456813 -0.006118449 -0.041117396 0.07267089 0.020040793
-0.009744517 0.017802153 -0.06633927 -0.0005417978 0.01318741 0.019935679 0.035701495 -0.021318547
0.022122782 0.027673256 0.019807283 0.01346718 0.010894734 0.051391955 -0.038941342 -0.0045243963
0.059755143 -0.05462926 0.015619944 -0.07001166 -0.040053688 0.060308177 0.009044592 -0.030464243
-0.05410692 0.028374063 -0.03279674 -0.00399958 0.03048553 0.03662512 0.06757785 -0.024360487
-0.03701317 0.04248617 -0.06644997 -0.03779821 0.02611775 -0.07485509 -0.0066294153 -0.011265263
-0.036442947 -0.04196911 0.03578841 -0.026056452 0.030784547 -0.021201866 0.061516896 -0.046815977
0.042229805 0.0606634 -0.04996407 -0.031491917 0.03205276 0.047904916 0.07200404 -0.06827591
0.061591353 -0.00682543 -0.02965441 -0.051657803 0.057586063 -0.0057660122 -0.028435886 0.028956264
0.03103996 -0.06507134 0.05281315 -0.025230516 0.07467205 0.046663426 0.00028267928 -0.017174488
00000000: 83a4 373c 04b5 d73c cd74 2f3c 010a 2abd
00000010: a3ad 99bd 7a7d 65bd d788 0abd 1821 a4bd
00000020: 8bae ab3b 913c 9d3d af0c 273c 8a21 893d
00000030: 4de8 9f3d c7f9 52bd c7f6 75bd deae 2c3d
00000040: 715f a73d 0fd9 6f3c 9724 9d3c 5503 673d
00000050: e20e 883d defb 643d 7e18 3b3d 2e0d 9c3d
00000060: bf1d b13b d8d6 cf3b d21b 90bd 3539 5c3d
00000070: 59b7 983c 3fc2 fcbc 25a6 0c3a 8b0f 983a
00000080: 7acb 343d 2a0d c43c e52c d0bc 5dbf 1b3d
00000090: 7a0c 2cbd 0d73 c3bc da84 d5bc 2c65 7abc
000000a0: 671a 013d eba8 27bc ff7e 223b dbe4 9a3d
000000b0: 1471 4b3c 981a 65bd 835a c83c e6df 253d
000000c0: e1b5 823d 7519 89bd c3bc 91bc 01af 943d
000000d0: 2a47 c53c d3f6 653d edc1 1f3d 4f2d a53c
000000e0: 3433 683d b1f0 063d 6bb4 a8bc 175f 0cbd
000000f0: 3383 983c 34e1 0bbd 6be9 1dbd 4372 30bd
00000100: 4398 843d e624 12bd 005d 3fbd 2654 cc3c
00000110: 5fe4 96bd 6823 563d c675 983d 86ab 58bd
00000120: dcec 5ebd 594f 873c f8f1 763d 3534 39bd
00000130: a932 3b3d f9d8 97bd 4d7e 383c 7647 95bd
00000140: 0b3e 823d 784f 26bd 7acd 9b3d ea92 403d
00000150: 24a7 7dbd b4df 4b3c 5d0c b1bc bc9e 6e3d
00000160: 8232 2bbd fa12 803d ea6f 54bd e6a8 433d
00000170: c13a a63c db50 2cbd 9439 243d 61d9 793d
00000180: cad3 3cbd b7c7 4b3d 767b 84ba 0807 45bd
00000190: 41a2 4f3d 196a debc dc64 a2bc 2da3 12bc
000001a0: 70cc 36bc 5776 38bd b950 a13d 6972 bdbc
000001b0: aba4 ca3c 21d8 35bd 0819 713c 3a0b 52bc
000001c0: e54f 8d3d 4373 8cbd e9b1 9b3c 257f d1bc
000001d0: b275 05bd 3736 91bd 11a2 23bd 931f 423d
000001e0: 59f2 a4bd 2dc6 533d 2681 66bd cf8c c7bc
000001f0: 1a45 febc b20c 283d 6a82 fd3c 436b 883d
00000200: 504b a93d f131 9fbd 67a6 67bc 9314 ecbb
00000210: 08ea 783d 84f2 8d3d 45db be3c f40a a2bd
00000220: 7b42 733d 5974 c3bc 6936 333c cfd9 903d
00000230: dab3 98bc c77e 1a3d 5e47 a13d 1d0e 3d3d
00000240: 76d3 7a3d cffb 82bd 49ae 88bd b7c2 453d
00000250: 5d36 913d ea61 4fbd 88a8 febc c019 60bd
00000260: cf2e f6bc 34a6 a0bd 5a01 973d 6694 31bd
00000270: 143e 9bbd 9775 24bd db07 d03b 57b1 9bbd
00000280: f21a d038 289d ac3c 3af3 8a3d 7955 6dbc
00000290: c5ac 7c3d 7913 213d 5160 88bd e030 0a3d
000002a0: c74e c43c 0a89 833c 03d8 75bd f5de 583d
000002b0: 4e28 bebc 7720 2bbd a0f3 313d 67de 893d
000002c0: 7b6c 973d 972a 9bbd 54ef 72bd 5bb5 3bbc
000002d0: 457d c8bb b76a 28bd 7ad4 943d 972c a43c
000002e0: 77a7 1fbc d2d5 913c e2dc 87bd 6f07 0eba
000002f0: 0210 583c 2650 a33c bb3b 123d 3ca4 aebc
00000300: d63a b53c 06b3 e23c e242 a23c 72a5 5c3c
00000310: d47f 323c 5f80 523d f580 1fbd 6341 94bb
00000320: cfc1 743d eec2 5fbd cbea 7f3c 4662 8fbd
00000330: 560f 24bd b505 773d c52f 143c 2690 f9bc
00000340: 389f 5dbd b970 e83c e055 06bd e90e 83bb
00000350: cabc f93c 3904 163d 4166 8a3d a58f c7bc
00000360: 1f9b 17bd fa05 2e3d ec16 88bd 4cd2 1abd
00000370: e4f4 d53c a04d 99bd 913b d9bb f091 38bc
00000380: 3345 15bd cde7 2bbd de96 123d 5774 d5bc
00000390: e02f fc3c 89af adbc 24f9 7b3d 1cc2 3fbd
000003a0: 29f9 2c3d 2f7a 783d 20a7 4cbd abfd 00bd
000003b0: c149 033d f237 443d db76 933d 3ed4 8bbd
000003c0: 3747 7c3d dba7 dfbb ceed f2bc 2297 53bd
000003d0: 5ddf 6b3d d1f0 bcbb 60f2 e8bc b035 ed3c
000003e0: 8447 fe3c 1f44 85bd 9a52 583d 3ab0 cebc
000003f0: a9ed 983d 2622 3f3d 9234 9439 83b1 8cbc

sequential/conv2d_2/Conv2D f4 [128, 3, 3, 64]
-0.03793616 -0.036610983 -0.01916251 0.041483756 -0.043410078 0.016598336 -0.049056914 0.03505993
0.0046776645 -0.038058393 -0.05094438 -0.013939909 -0.011148379 0.055463362 -0.030169101 -0.0058597787
0.033336252 -0.027781071 0.023634842 -0.037993327 0.02169912 -0.015371104 -0.027568525 -0.010821119
0.022714583 0.0408365 0.010657531 -0.02871017 0.012852428 -0.0030932403 -0.037121966 0.037230004
0.053902507 -0.042090017 0.00040134083 0.031428974 -0.014063155 0.041827075 0.053868115 0.050203573
0.005893895 -0.025612878 -0.042747803 -0.0446796 0.028987817 -0.029950889 -0.006746163 0.0109436335
-0.006987519 0.018898219 0.011192266 0.05506072 0.012212226 0.030704197 0.009868403 0.009656127
0.046796985 -0.05290354 0.028374197 -0.0028905023 -0.051013604 0.037289325 -0.04751311 0.051747795
0.020619584 -0.019432565 0.029013034 0.053462792 -0.049838457 0.03279557 -0.0071205744 -0.025943767
0.0025452715 0.049432408 -0.036356222 0.030586267 -0.04372412 0.014119505 -0.013986922 -0.03291829
-0.053413685 0.03078447 -0.020166084 0.02663633 0.0016381757 0.054783575 0.0012244685 0.018981094
0.015616119 -0.016807754 0.0441896 0.04119877 -0.009241954 0.037789308 -0.025698917 0.009431591
0.01898749 0.045680694 -0.0048446683 0.024860183 0.02198356 0.040828347 -0.001734263 0.02569592
-0.028460333 0.041942 -0.0054075965 0.046709903 -0.019582042 -0.045623578 -0.028794091 -0.015172328
0.012835187 -0.013338189 0.05543393 0.04812916 -0.008169336 0.009537868 -0.00831068 0.039695572
-0.014587725 0.0061993157 -0.030605026 -0.052383322 0.0071804393 0.009341264 -0.055248555 -0.043460328
-0.04551525 0.027231805 0.03657259 0.013732201 -0.0050982237 0.040599983 0.0059243846 0.048758853
-0.024862647 0.047590084 0.031340316 0.010866925 0.031343244 -0.0330494 0.04157442 0.0070775324
-0.05352247 -0.023757685 0.048074607 0.020554153 0.0030485843 -0.020612536 -0.012645188 0.005054528
-0.023816217 0.0045527294 -0.031475607 0.0063336124 0.040808145 0.04166492 -0.00043735228 -0.041948587
0.019620582 0.056161284 0.022194626 -0.05609056 0.034145642 0.036699265 0.005084743 -0.009816972
-0.041461267 0.034899697 -0.041975748 0.04994622 0.031504914 0.046423756 0.05141302 -0.003925553
0.023357553 -0.0017473386 -0.024746377 -0.013686533 0.0016049793 -0.042362772 -0.05587754 -0.023131425
-0.052063923 0.0046564476 -0.02088354 -0.020586275 -0.048877656 -0.047359314 0.009868632 -0.03784058
0.015135848 0.042046275 0.042114448 -0.019527046 -0.026639093 0.007077104 0.0039502 -0.027582653
0.013608866 -0.015115434 0.04197208 0.02420522 0.032270744 0.052383978 0.032285117 0.039575055
-0.0042376923 -0.05275434 0.054783627 0.007068402 0.052157994 -0.003958367 0.02020996 -0.030409867
0.00067406317 0.025001021 0.018196702 -0.012363293 0.0023104239 0.0041227974 0.0040235566 0.027859276
-0.0073460885 0.04747737 0.056039322 0.025283612 -0.03349606 -0.03422595 -0.0061403974 -0.020895131
-0.0041086525 0.016409993 -0.018378446 -0.025171967 0.033533223 -0.025198413 0.049697455 0.004621718
0.02255437 -0.05308454 -0.012822367 0.022657156 0.02123175 -0.05459778 0.037787028 -0.05154802
-0.031038588 -0.046667475 -0.017314363 -0.04763523 0.046840124 -0.04879526 -0.019376278 -0.054800846
00000000: f262 1bbd 66f5 15bd b2fa 9cbc dfea 293d
00000010: c4ce 31bd 3cf9 873c e7ef 48bd 009b 0f3d
00000020: 1847 993b 1ee3 1bbd 0eab 50bd 3764 64bc
00000030: b1a7 36bc 8d2d 633d 3125 f7bc 6303 c0bb
00000040: 988b 083d 2195 e3bc db9d c13c e49e 1bbd
00000050: 5ac2 b13c 15d7 7bbc 63d7 e1bc 104b 31bc
00000060: ef13 ba3c 2c44 273d ed9c 2e3c 9731 ebbc
00000070: fd92 523c f6b7 4abb 340d 18bd 7d7e 183d
00000080: e0c8 5c3d 9566 2cbd 0e6b d239 abbb 003d
00000090: 2669 66bc de52 2b3d d0a4 5c3d 43a2 4d3d
000000a0: 9321 c13b 19d2 d1bc 5218 2fbd f501 37bd
000000b0: dc77 ed3c 915b f5bc eb0e ddbb ed4c 333c
000000c0: 8ff7 e4bb 70d0 9a3c c45f 373c 5987 613d
000000d0: ca15 483c 5e87 fb3c 15af 213c bb34 1e3c
000000e0: 32ae 3f3d 62b1 58bd 0171 e83c 956e 3dbb
000000f0: a4f3 50bd b1bc 183d 1b9d 42bd 7ff5 533d
00000100: 67ea a83c 0b31 9fbc beac ed3c cdfb 5a3d
00000110: 6923 4cbd a654 063d b553 e9bb 0688 d4bc
00000120: 92ce 263b a379 4a3d 43ea 14bd 0d90 fa3c
00000130: 1018 33bd 7f55 673c 6729 65bc 54d5 06bd
00000140: 4fc8 5abd b62f fc3c 5833 a5bc 6f34 da3c
00000150: 0eb8 d63a be64 603d 587e a03a 3d7e 9b3c
00000160: c0da 7f3c 6ab0 89bc 2700 353d 0bc0 283d
00000170: 916b 17bc f6c8 1a3d 8986 d2bc f686 1a3c
00000180: a78b 9b3c ae1b 3b3d 06c0 9ebb 95a7 cb3c
00000190: de16 b43c a03b 273d 3650 e3ba 4080 d23c
000001a0: a525 e9bc 60cb 2b3d 3532 b1bb e252 3f3d
000001b0: 856a a0bc cadf 3abd 96e1 ebbc 5b95 78bc
000001c0: ad4a 523c 6b88 5abc b00e 633d 1523 453d
000001d0: aed8 05bc b844 1c3c 8529 08bc d397 223d
000001e0: 5a01 6fbc a123 cb3b 64b7 fabc e58f 56bd
000001f0: e449 eb3b 1a0c 193c 4f4c 62bd 7503 32bd
00000200: 336e 3abd 3c15 df3c 24cd 153d 07fd 603c
00000210: 000f a7bb 2b4c 263d 5721 c23b 5db7 473d
00000220: c0ac cbbc d2ed 423d b45e 003d 300b 323c
00000230: c661 003d cf5e 07bd f049 2a3d a5ea e73b
00000240: 613a 5bbd 7a9f c2bc e1e9 443d 2f61 a83c
00000250: c2ca 473b 9fdb a8bc c32d 4fbc 74a0 a53b
00000260: 3a1a c3bc 102f 953b 91ec 00bd 318a cf3b
00000270: 7126 273d d6a8 2a3d 6e4c e5b9 48d2 2bbd
00000280: 58bb a03c 6009 663d 81d1 b53c 37bf 65bd
00000290: 4ddc 0b3d f851 163d ea9d a63b 5dd7 20bc
000002a0: 4ad3 29bd fcf2 0e3d c3ee 2bbd 6894 4c3d
000002b0: 4c0b 013d d626 3e3d 7596 523d eda1 80bb
000002c0: 5758 bf3c f406 e5ba eab8 cabc 7b3d 60bc
000002d0: 2b5e d23a 9684 2dbd d9df 64bd 1d7e bdbc
000002e0: fb40 55bd 1d95 983b f513 abbc 8ca4 a8bc
000002f0: f033 48bd d7fb 41bd 0bb0 213c b9fe 1abd
00000300: 59fc 773c b738 2c3d 3380 2c3d 2ff7 9fbc
00000310: 3a3a dabc 0de7 e73b ae70 813b 04f5 e1bc
00000320: b9f7 5e3c baa6 77bc eaea 2b3d 074a c63c
00000330: 542e 043d 9590 563d 663d 043d 7419 223d
00000340: 57dc 8abb ef14 58bd cc64 603d 0e9e e73b
00000350: 9fa3 553d 30b5 81bb 5c8f a53c 1d1e f9bc
00000360: 9db3 303a f1ce cc3c 4011 953c 698f 4abc
00000370: 7b6a 173b 8818 873b 0ad8 833b 2339 e43c
00000380: 75b7 f0bb a177 423d 7d89 653d 941f cf3c
00000390: 2a33 09bd 8230 0cbd 6335 c9bb 442c abbc
000003a0: e0a1 86bb 406e 863c 658e 96bc 7135 cebc
000003b0: 225a 093d e76c cebc 8f8f 4b3d c871 973b
000003c0: f1c3 b83c 2d6f 59bd e814 52bc 809b b93c
000003d0: 35ee ad3c eca1 5fbd 92c6 1a3d 0424 53bd
000003e0: a344 febc 6526 3fbd dad6 8dbc 291d 43bd
000003f0: 6edb 3f3d 8add 47bd 00bb 9ebc da76 60bd

sequential/conv2d_3/Conv2D f4 [128, 3, 3, 128]
0.03556688 0.03831519 -0.04211974 -0.011963151 0.02860297 -0.029054074 -0.03258632 0.008100887
-0.03591613 0.034065496 0.0034967351 0.03415611 -0.045026105 -0.0042425133 0.00036551192 0.010599305
0.024492322 -0.024545316 0.03562537 -0.0026349851 -0.027308574 0.03204892 0.042052634 0.001654628
-0.042643234 0.005469974 0.04194531 0.03329255 0.047370456 0.0022918833 -0.0006235399 -0.029517565
0.04738416 0.043747038 0.0040134657 -0.010397959 -0.023482822 -0.031576093 0.005131839 -0.045185994
0.009207814 -0.0051970105 0.041044254 0.045403697 -0.009671256 -0.041248117 0.013518932 0.037812367
0.011544597 -0.028071923 0.013815959 0.022276225 -0.009822858 0.0059407726 -0.025676964 0.03897749
0.019087287 0.018452216 0.037559427 -0.039427552 0.0041328496 0.017673304 -0.039345972 -0.022087475
0.023549957 -0.019970074 -0.043608967 0.01745862 -0.02823249 0.022115258 0.021312205 -0.035891633
-0.017684301 0.040105574 0.030553626 -0.048640326 0.04363562 0.04080774 0.0022471945 -0.04822638
0.013153182 -0.038323294 -0.042517293 -0.036231946 0.006585605 0.034236655 0.009358153 0.03412655
-0.0024131034 0.018252617 0.00895694 0.03741617 0.007314679 0.0321833 -0.03527198 0.0033582984
-0.0076928493 0.044288304 0.035921756 -0.03544891 -0.013730294 -0.03324592 0.02881213 0.008340245
0.010749012 0.04548092 -0.044178184 0.032288946 -0.024548354 -0.006263629 0.010893604 -0.04461304
0.022943879 0.0024365338 0.015736822 0.007795783 -0.021114 -0.0054866574 -0.0071121007 -0.012495196
0.040389545 0.044695735 0.0215914 0.03487544 -0.02154374 -0.0036703327 -0.026863696 0.0023343645
0.036678698 0.026481219 0.004534549 -0.0214513 0.02576341 -0.01940464 -0.0034599302 -0.004295473
0.022720478 0.015401236 -0.0051197633 -0.0072754268 -0.031011138 0.0038572857 0.018262483 -0.032712486
0.0299251 0.043718062 0.015055353 0.028112749 -0.0062256837 0.0071340506 0.011979961 -0.02633655
-0.026460016 0.030384956 0.01850104 -0.0064803036 -0.03222912 -0.022673588 0.042493682 0.042331442
-0.04081011 0.047253508 -0.012325135 -0.037736703 0.00071478356 -0.03737805 -0.022468444 0.047919724
-0.013432078 -0.017672164 0.009466026 -0.038238928 0.015452862 -0.029454812 0.04011561 0.017821316
-0.010888011 0.048655942 0.02301292 -0.016642882 -0.029342884 0.0053337226 0.017459791 0.035388235
0.021391233 0.03937098 -0.03419811 0.016807191 -0.0044992617 -0.019475698 0.016043447 -0.04377315
0.01804933 -0.027740354 -0.023684777 -0.015957547 0.0022077116 0.039336476 0.028100494 0.007867199
0.027774565 0.038602155 -0.0239265 -0.03367712 0.012390024 0.01409993 -0.02289347 0.0017779061
0.023947775 0.026645143 0.0018658587 -0.006801966 0.032940716 0.020289173 0.012269773 -0.00025944127
0.004127427 0.0066621434 0.02613152 0.007214575 0.032659147 0.033440467 -0.028159624 0.042622168
0.018710384 0.040045317 0.0068334313 -0.0016982303 0.04203066 0.041600585 -0.016923832 -0.041168097
-0.004572605 -0.04008885 0.04581632 0.048619643 -0.022097984 0.0077401935 -0.042768825 0.034675393
-0.002793186 0.006351631 -0.0432049 -0.03163826 0.04440037 -0.04423158 -0.03378618 -0.0069393213
6.823652e-05 0.0022995237 0.04673512 -0.001274804 -0.041816022 0.0011870071 -0.0051169395 -0.0043216688
00000000: 94ae 113d 63f0 1c3d c085 2cbd 1801 44bc
00000010: c750 ea3c cf02 eebc 3c79 05bd 95b9 043c
00000020: cb1c 13bd 4388 0b3d 7b29 653b 47e7 0b3d
00000030: 4b6d 38bd c804 8bbb 2ea2 bf39 b5a8 2d3c
00000040: 1fa4 c83c 4213 c9bc e8eb 113d b7af 2cbb
00000050: 3bb6 dfbc ba45 033d 623f 2c3d 1ae0 d83a
00000060: acaa 2ebd 783d b33b d8ce 2b3d c55d 083d
00000070: 8607 423d 6c33 163b 0e75 23ba d2ce f1bc
00000080: e515 423d 1830 333d 6483 833b 335c 2abc
00000090: 0c5f c0bc ef55 01bd fc28 a83b f314 39bd
000000a0: 5fdc 163c af4b aabb 051e 283d 3af9 393d
000000b0: 3074 1ebc c9f3 28bd 837e 5d3c 24e1 1a3d
000000c0: 8d25 3d3c 17f7 e5bc 555c 623c a17c b63c
000000d0: 0df0 20bc d0aa c23b 7f58 d2bc dca6 1f3d
000000e0: f15c 9c3c 1a29 973c ead7 193d c97e 21bd
000000f0: db6c 873b 9bc7 903c 3e29 21bd cbf0 b4bc
00000100: d7eb c03c 4898 a3bc 519f 32bd 6105 8f3c
00000110: d347 e7bc 0f2b b53c ef96 ae3c 1b03 13bd
00000120: abde 90bc be45 243d 994b fa3c 143b 47bd
00000130: 44bb 323d 0426 273d ab45 133b 0689 45bd
00000140: 7280 573c e3f8 1cbd 9d26 2ebd f367 14bd
00000150: 0fcc d73b bc3b 0c3d f052 193c 48c8 0b3d
00000160: 2825 1ebb 8386 953c 21c0 123c b341 193d
00000170: faaf ef3b a3d2 033d 5a79 10bd e616 5c3b
00000180: 4c14 fcbb a767 353d b122 133d e032 11bd
00000190: 07f5 60bc e02c 08bd 6b07 ec3c 86a5 083c
000001a0: a01c 303c 334a 3a3d 2ff4 34bd 6a41 043d
000001b0: a119 c9bc 213f cdbb 167b 323c 2abc 36bd
000001c0: cdf4 bb3c 41ae 1f3b 82ea 803c c573 ff3b
000001d0: 44f7 acbc 6bc9 b3bb a00c e9bb a7b8 4cbc
000001e0: 826f 253d e012 373d 73e0 b03c 8dd9 0e3d
000001f0: 7f7c b0bc f789 70bb 4111 dcbc 23fc 183b
00000200: 673c 163d 24ef d83c 8e96 943b a3ba afbc
00000210: c90d d33c 7bf6 9ebc ffbf 62bb 0ac1 8cbb
00000220: 4c20 ba3c 7755 7c3c b0c3 a7bb b466 eebb
00000230: 120b febc 84ca 7c3b 349b 953c 87fd 05bd
00000240: 7c25 f53c b611 333d baaa 763c b54c e63c
00000250: d200 ccbb c1c4 e93b 9947 443c c0bf d7bc
00000260: adc2 d8bc dfe9 f83c 7e8f 973c ba58 d4bb
00000270: af02 04bd f6bd b9bc db0d 2e3d bc63 2d3d
00000280: 8028 27bd e58c 413d 5def 49bc cd91 1abd
00000290: 5060 3b3a ba19 19bd be0f b8bc 7947 443d
000002a0: 3812 5cbc 37c5 90bc 6417 1b3c 6ca0 1cbd
000002b0: 002e 7d3c 384b f1bc 4450 243d 02fe 913c
000002c0: a163 32bc 744b 473d 9785 bc3c a756 88bc
000002d0: 7d60 f0bc 82c6 ae3b d607 8f3c 41f3 103d
000002e0: ab3c af3c 7743 213d 5113 0cbd 3caf 893c
000002f0: 8b6e 93bb 808b 9fbc 8c6d 833c 794b 33bd
00000300: 30dc 933c bd3f e3bc 9406 c2bc 67b9 82bc
00000310: 41af 103b 491f 213d 0233 e63c 6de5 003c
00000320: 7c87 e33c 4b1d 1e3d 8201 c4bc 05f1 09bd
00000330: 87ff 4a3c 6503 673c 168b bbbc a108 e93a
00000340: 202e c43c ea46 da3c d48f f43a 07e3 debb
00000350: d8ec 063d 7b35 a63c 2807 493c 9e05 88b9
00000360: 5e3f 873b 1c4e da3b c511 d63c 3e68 ec3b
00000370: 99c5 053d dff8 083d 03af e6bc 9594 2e3d
00000380: 8546 993c 8f06 243d faea df3b 2797 deba
00000390: 5728 2c3d 6065 2a3d d9a3 8abc e19f 28bd
000003a0: cad5 95bb 3534 24bd e5a9 3b3d 6425 473d
000003b0: d506 b5bc 73a1 fd3b 5d2e 2fbd c907 0e3d
000003c0: e30d 37bb 5821 d03b 9ff7 30bd 1f97 01bd
000003d0: 2add 353d 2c2c 35bd 6163 0abd 3f63 e3bb
000003e0: 341a 8f38 9bb3 163b 536d 3f3d 5317 a7ba
000003f0: 4747 2bbd 5995 9b3a 00ac a7bb c99c 8dbb

sequential/conv2d_4/Conv2D f4 [7, 1, 1, 128]
0.055796307 -0.12222939 -0.18196037 -0.11934974 -0.18908519 0.13207231 0.07818247 -0.120693624
0.052471828 0.1043631 0.13173199 0.044013787 -0.16166283 -0.10237255 0.17258365 0.09827089
0.16109167 0.014961184 -0.20058338 -0.10644471 0.14994723 0.063396424 0.047184613 -0.18670169
0.20483129 -0.1788511 0.19254774 0.097235486 0.097954206 0.12741345 0.11898389 -0.032511763
0.18080144 -0.08820592 0.13366756 0.0024388118 -0.04595504 0.004127431 0.124396294 0.15787613
0.065114334 0.06615032 0.05697526 -0.0072365976 -0.05225096 0.055002514 -0.027600063 -0.048120163
0.15205775 0.019677695 -0.20712169 0.19477746 -0.08816498 -0.18555814 -0.0687399 -0.2065016
-0.022715718 -0.0617997 -0.12313119 0.0043785796 -0.14244151 0.16425453 0.02183508 0.16757086
0.20209453 -0.19294418 -0.024505245 0.06547229 -0.010931576 -0.11391695 0.08611166 -0.022828147
0.012849034 -0.01600135 -0.12998375 -0.06625197 -0.14111897 0.013662025 0.10284474 -0.033168305
-0.10356689 -0.19275044 -0.19315904 0.12412053 -0.02041884 -0.112356104 0.13146545 0.07716798
0.06868326 -0.20296781 0.12964533 0.10313778 -0.04618333 -0.0783795 -0.01425234 -0.018332053
-0.10658412 -0.010716375 -0.049890403 -0.18660435 -0.17561117 0.026733527 0.06724538 0.19620185
-0.039289147 -0.09633807 0.0070757973 0.06380306 -0.0011027444 -0.18733317 -0.06713323 0.1079803
-0.12688975 -0.031547867 0.064143114 0.19548158 0.023571128 -0.18291423 -0.14475274 0.023166
0.0007048618 -0.14548536 0.18758361 0.18849869 0.105024844 -0.094064206 -0.106254816 -0.17665198
0.029383836 -0.16554928 0.13210568 -0.00791619 0.1495315 0.18906216 -0.011252722 -0.17421564
-0.08458181 -0.085066795 -0.14989822 -0.08150197 -0.039066613 -0.12835003 -0.0106296195 -0.11223542
0.19589148 -0.050346665 -0.15735316 0.10442365 -0.0018742636 -0.14209415 0.15582827 0.06950515
0.107170835 0.011569696 0.036440417 -0.19562289 0.08000422 0.17891489 -0.19505042 0.053356286
-0.056137636 0.19773397 -0.15119617 0.13973448 0.064451486 0.06559396 -0.0008544309 0.12277426
0.007992184 0.03093476 -0.030484876 0.07953696 0.0054714023 -0.1901004 0.10340809 -0.13447371
0.03849795 0.092788115 -0.032218464 -0.118791 -0.14959997 0.19432418 0.13641243 0.0064287498
0.1390204 0.18399602 -0.065960206 -0.09223682 -0.06760728 0.08565291 0.05884721 -0.08156799
-0.095394276 0.16443467 0.10593295 0.11750107 0.16820955 -0.10645966 -0.1992841 0.097876735
-0.030445034 -0.11969245 0.15166907 -0.15691057 0.19961722 -0.09605067 -0.09820157 -0.042720944
0.13212016 0.15200728 -0.06834746 -0.10887336 -0.19385757 -0.039823655 0.106415346 -0.024683107
-0.19444874 -0.016024768 0.025823707 -0.004493788 -0.0023856878 0.06223089 -0.18767172 -0.15313967
0.051826306 0.1712762 -0.010508705 -0.12041075 -0.060842272 -0.09960373 0.1901962 0.024375275
0.121992834 0.12367608 -0.16016577 -0.042016786 -0.019249596 -0.120757 -0.17582634 -0.20850605
-0.12144314 -0.029978227 0.13980459 0.16878536 0.10570574 0.18630679 -0.10511584 0.097897105
0.016783953 -0.04033614 0.08650236 -0.20350055 0.056586646 -0.028038526 0.11633288 0.17230074
00000000: ab8a 643d 6753 fabd d253 3abe a36d f4bd
00000010: 8c9f 41be f73d 073e 211e a03d 382e f7bd
00000020: b3ec 563d 52bc d53d c0e4 063e cd47 343d
00000030: f18a 25be b3a8 d1bd c5b9 303e 4042 c93d
00000040: 37f5 243e c11f 753c bb65 4dbe afff d9bd
00000050: c48b 193e fcd5 813d a744 413d ba2e 3fbe
00000060: 4bbf 513e be24 37be 3c2b 453e 6623 c73d
00000070: 379c c83d ac78 023e d3ad f33d 0e2b 05bd
00000080: 0324 393e 4ea5 b4bd 26e0 083e 79d4 1f3b
00000090: 5a3b 3cbd 673f 873b 7cc3 fe3d 48aa 213e
000000a0: aa5a 853d d279 873d e45e 693d fb20 edbb
000000b0: 1a05 56bd 514a 613d 8719 e2bc a619 45bd
000000c0: 07b5 1b3e 1e33 a13c b517 54be be73 473e
000000d0: d78f b4bd f402 3ebe 81c7 8cbd 2875 53be
000000e0: 5016 babc af21 7dbd 352c fcbd 307a 8f3b
000000f0: 30dc 11be 5732 283e 7bdf b23c b297 2b3e
00000100: def1 4e3e 2993 45be 39bf c8bc 5616 863d
00000110: 5a1a 33bc 4a4d e9bd 4f5b b03d 1802 bbbc
00000120: c184 523c 4315 83bc 761a 05be 1daf 87bd
00000130: 7e81 10be b0d6 5f3c 43a0 d23d 7ddb 07bd
00000140: e11a d4bd 5f60 45be 7ccb 45be e832 fe3d
00000150: 6945 a7bc f51a e6bd e19e 063e 3f0a 9e3d
00000160: cfa9 8c3d cbd6 4fbe bfc1 043e e739 d33d
00000170: bb2a 3dbd 6e85 a0bd a682 69bc 1a2d 96bc
00000180: c648 dabd bc93 2fbc e159 4cbd 3615 3fbe
00000190: 6ad3 33be 4500 db3c f2b7 893d 23e9 483e
000001a0: a8ed 20bd e54c c5bd 17dc e73b 2eab 823d
000001b0: f689 90ba 44d4 3fbe 267d 89bd c724 dd3d
000001c0: 63ef 01be 5638 01bd 775d 833d 532c 483e
000001d0: 3d18 c13c de4d 3bbe 103a 14be a0c6 bd3c
000001e0: 7ac6 383a 1dfa 14be eb15 403e cd05 413e
000001f0: 4417 d73d bca4 c0bd 209c d9bd 42e4 34be
00000200: 5fb6 f03c c085 29be b646 073e e8b2 01bc
00000210: c91e 193e 8399 413e 565d 38bc 9665 32be
00000220: 3a39 adbd 8037 aebd eb7e 19be 81ea a6bd
00000230: 5004 20bd 316e 03be db27 2ebc afdb e5bd
00000240: c797 483e 4e38 4ebd 3021 21be 11dc d53d
00000250: daa9 f5ba 2181 11be 7291 1f3e b758 8e3d
00000260: 627c db3d d28e 3d3c 8c42 153d 5e51 48be
00000270: 41d9 a33d 7735 373e 4cbb 47be 1f8c 5a3d
00000280: 94f0 65bd c67a 4a3e 2bd3 1abe 8e16 0f3e
00000290: 24ff 833d 2056 863d e3fb 5fba 1271 fb3d
000002a0: a6f1 023c e56a fd3c 6bbb f9bc 46e4 a23d
000002b0: 7349 b33b aea9 42be 9fc7 d33d 7ab3 09be
000002c0: 07b0 1d3d b207 be3d 82f7 03bd b248 f3bd
000002d0: bc30 19be ebfc 463e b3af 0b3e 43a8 d23b
000002e0: 5d5b 0e3e 7469 3c3e 2516 87bd a8e6 bcbd
000002f0: b075 8abd cb6a af3d c609 713d 1e0d a7bd
00000300: 135e c3bd 9061 283e 60f3 d83d 67a4 f03d
00000310: 203f 2c3e 8607 dabd 2211 4cbe 9973 c83d
00000320: dd67 f9bc 5121 f5bd 234f 1b3e 2aad 20be
00000330: 7568 4c3e 37b6 c4bd e81d c9bd 28fc 2ebd
00000340: 824a 073e cca7 1b3e c1f9 8bbd fff8 debd
00000350: 9982 46be 211e 23bd 4af0 d93d 3a34 cabc
00000360: 921d 47be 6046 83bc 3d8c d33c a040 93bb
00000370: 3359 1cbb d1e5 7e3d 042d 40be a5d0 1cbe
00000380: d247 543d 0763 2f3e b42c 2cbc e999 f6bd
00000390: bf35 79bd 0afd cbbd cbc2 423e a8ae c73c
000003a0: 61d7 f93d e249 fd3d 7f02 24be cb19 2cbd
000003b0: 54b1 9dbc 724f f7bd d20b 34be 9c82 55be
000003c0: 2eb7 f8bd e694 f5bc ef28 0f3e 12d6 2c3e
000003d0: 407c d83d 35c7 3e3e f946 d7bd 477e c83d
000003e0: 807e 893c 8237 25bd 2628 b13d 7362 50be
000003f0: 66c7 673d 0db1 e5bc ef3f ee3d 9b6f 303e

sequential/conv2d_5/Conv2D f4 [3, 4, 4, 7]
0.014638861 -0.13411567 -0.061884407 0.16438793 0.012104999 -0.014018489 -0.12021138 0.14723109
-0.0431919 -0.13751478 -0.16085653 0.17916027 0.020281607 -0.11506562 -0.096041545 -0.038129505
0.15442267 -0.16617283 0.17700885 -0.00087857194 -0.015250389 -0.03217006 0.18988629 0.08230838
0.06880651 0.16106953 0.043367002 -0.08926734 0.10049696 0.10576853 0.18045016 0.013937046
0.091429636 0.07390923 -0.18692017 -0.1652298 0.1664931 0.15894014 -0.083608486 0.027278494
-0.1571597 -0.087218516 0.1873732 0.050826263 -0.05456874 -0.072285175 -0.17320547 -0.014947262
-0.14155091 -0.08477327 -0.18945955 -0.016389057 -0.107017264 0.05104827 0.15395544 -0.040384907
0.1455169 -0.13234675 0.05187227 -0.1008485 -0.0025543692 0.06360446 -0.010409973 0.1234816
-0.0788091 -0.16474944 0.114204496 -0.14513421 -0.1889111 0.0016017011 -0.036649823 -0.023443172
-0.11589077 0.09871795 -0.14278308 -0.14283921 0.189771 -0.17585444 -0.07623195 -0.1585248
0.07642529 0.16588527 -0.010333359 0.034597967 0.18595116 0.03589019 0.068282776 -0.107459426
-0.035432328 0.044657685 -0.017706683 -0.12886135 0.10781295 0.116404 0.028324977 0.104652114
0.003948366 0.007154038 0.14694706 -0.037552036 -0.00023029976 -0.18640861 -0.03695802 -0.015910052
-0.058289412 -0.14795834 -0.10226402 -0.13514158 -0.04389053 -0.015724475 -0.14541358 0.15648475
0.029818233 0.15610665 0.06686031 -0.12931147 -0.0136538865 -0.10740398 -0.17524941 -0.11701129
-0.02539047 -0.12534223 0.03487117 -0.1645638 -0.089237124 0.028287936 -0.19070286 -0.12524256
-0.083328396 0.010652285 -0.08037619 -0.18806797 0.15227641 -0.061140116 0.09925948 -0.030664371
0.08456293 0.12728946 -0.1181518 0.16232526 -0.0041229133 -0.08952539 -0.06357174 -0.14202595
0.13037454 0.07049698 -0.05799182 0.08123321 -0.0143992 -0.07793148 -0.057163723 0.09174278
-0.11339778 0.12469554 0.06772894 -0.13184851 -0.061999325 0.16527422 0.0038143478 0.13702264
-0.15524358 0.027135465 -0.17508784 -0.13021208 0.046185028 -0.08573573 -0.11720312 0.11264541
0.08042335 -0.10675548 -0.16547354 0.048192754 0.10453022 0.13602597 -0.07538357 -0.17180435
-0.1329898 0.16838723 -0.091910906 -0.14889525 0.12731247 -0.008720679 -0.0008676603 -0.07287408
0.12176877 -0.015145371 -0.14316468 -0.07327574 0.17516358 0.009771108 -0.099852435 0.09770114
-0.008407249 -0.1300985 -0.11206938 -0.13318105 0.03062261 0.100311115 0.19103427 -0.017170824
0.11973829 0.1825021 0.16724081 -0.025516005 0.1713455 -0.06887354 0.09294553 -0.001011732
-0.09754639 -0.029550517 -0.08922431 -0.14642565 -0.11375244 0.0007890725 -0.1673531 0.18643175
0.013579698 -0.10822971 0.12967198 0.029874716 -0.09012299 0.016575364 -0.062247355 -0.083220355
0.18152237 -0.004974003 0.044764653 -0.12057544 -0.14297725 0.033462312 -0.09406841 0.10150556
-0.112520866 0.16406637 -0.17091814 0.012808254 -0.1024216 0.14461207 0.16173272 0.153581
0.054004267 0.17794572 -0.103605285 0.041735437 0.14511013 0.10108621 -0.15617007 -0.18505955
-0.1733832 0.045930423 0.05289029 0.112847365 0.16044669 0.011240915 0.10582253 0.1372839
00000000: d5d7 6f3c 9e55 09be 817a 7dbd 4f55 283e
00000010: 0c54 463c cead 65bc 6231 f6bd bfc3 163e
00000020: fde9 30bd add0 0cbe 93b7 24be ca75 373e
00000030: 9d25 a63c 86a7 ebbd 6eb1 c4bd af2d 1cbd
00000040: fa20 1e3e 3629 2abe cf41 353e f74f 66ba
00000050: c5dc 79bc c1c4 03bd 8d71 423e 4c91 a83d
00000060: 6dea 8c3d 69ef 243e 99a1 313d ccd1 b6bd
00000070: 5ad1 cd3d 2c9d d83d edc7 383e 3558 643c
00000080: 763f bb3d b95d 973d 0068 3fbe 0032 29be
00000090: 2b7d 2a3e 34c1 223e ed3a abbd 2677 df3c
000000a0: 79ee 20be 9f9f b2bd c3de 3f3e 332f 503d
000000b0: 7983 5fbd 400a 94bd c65c 31be 5ce5 74bc
000000c0: b9f2 10be 9c9d adbd af01 42be 5842 86bc
000000d0: de2b dbbd fe17 513d 7fa6 1d3e a56a 25bd
000000e0: 6202 153e e885 07be 0478 543d a989 cebd
000000f0: 3467 27bb 0e43 823d 978e 2abc ece3 fc3d
00000100: aa66 a1bd 14b4 28be 0ce4 e93d 109e 14be
00000110: e971 41be 2cf0 d13a 201e 16bd e50b c0bc
00000120: 2458 edbd a32c ca3d ba35 12be 7144 12be
00000130: 5453 423e 3013 34be 7f1f 9cbd 5354 22be
00000140: dd84 9c3d d4dd 293e 404d 29bc 99b6 0d3d
00000150: fb69 3e3e 9801 133d d7d7 8b3d b013 dcbd
00000160: 7d21 11bd faea 363d 9b0d 91bc 3bf4 03be
00000170: 09cd dc3d 3865 ee3d c809 e83c d953 d63d
00000180: 4b61 813b 6c6c ea3b 4a79 163e 2ad0 19bd
00000190: 9f7c 71b9 e6e1 3ebe 4b61 17bd cc55 82bc
000001a0: e1c0 6ebd 6482 17be cc6f d1bd 8e62 0abe
000001b0: 8ec6 33bd 9dd0 80bc 4ce7 14be 8a3d 203e
000001c0: 5e45 f43c 6cda 1f3e 0fee 883d 3a6a 04be
000001d0: 8db4 5fbc 9ef6 dbbd 9574 33be 9da3 efbd
000001e0: adff cfbc b759 00be 12d5 0e3d 6a83 28be
000001f0: f4c1 b6bd 1abc e73c 9c47 43be 963f 00be
00000200: 14a8 aabd ec86 2e3c 469c a4bd e494 40be
00000210: 59ee 1b3e 0f6e 7abd 8e48 cb3d d933 fbbc
00000220: 542f ad3d 2b58 023e 92f9 f1bd 9838 263e
00000230: 8119 87bb 1659 b7bd e731 82bd 406f 11be
00000240: e780 053e b860 903d d588 6dbd 995d a63d
00000250: 9fea 6bbc 8a9a 9fbd 8224 6abd a3e3 bb3d
00000260: 183d e8bd 6060 ff3d 78b5 8a3d 4c03 07be
00000270: 01f3 7dbd a53d 293e 23fa 793b aa4f 0c3e
00000280: 2cf8 1ebe 324b de3c 3a4a 33be 5156 05be
00000290: 832c 3d3d 3796 afbd 3008 f0bd a3b2 e63d
000002a0: ffb4 a43d 9ea2 dabd e571 29be c465 453d
000002b0: f113 d63d 644a 0b3e b362 9abd 7bed 2fbe
000002c0: 7a2e 08be b46d 2c3e c93b bcbd ff77 18be
000002d0: 335e 023e 2ee1 0ebc b273 63ba 013f 95bd
000002e0: e861 f93d 4a24 78bc c399 12be 9711 96bd
000002f0: 155e 333e ff16 203c 6f7f ccbd 8917 c83d
00000300: 8fbe 09bc 8b38 05be a284 e5bd 9d60 08be
00000310: 45dc fa3c ea6f cd3d 7d9e 433e d4a9 8cbc
00000320: 5939 f53d d5e1 3a3e 2d41 2b3e f106 d1bc
00000330: 3275 2f3e 920d 8dbd 3a5a be3d 189c 84ba
00000340: 67c6 c7bd ed13 f2bc 3cbb b6bd 9bf0 15be
00000350: 0af7 e8bd c2d9 4e3a 9c5e 2bbe f7e7 3e3e
00000360: 627d 5e3c 8aa7 ddbd bbc8 043e d2bb f43c
00000370: 6792 b8bd 0fc9 873c 15f7 7ebd 6f6f aabd
00000380: 00e1 393e f6fc a2bb 245b 373d 42f0 f6bd
00000390: a168 12be c70f 093d f0a6 c0bd 26e2 cf3d
000003a0: 5771 e6bd 0401 283e 2a05 2fbe b6d9 513c
000003b0: 6ac2 d1bd 3015 143e 439d 253e 5644 1d3e
000003c0: 9433 5d3d 6737 363e 022f d4bd c7f2 2a3d
000003d0: c097 143e 4906 cf3d 0ceb 1fbe 4080 3dbe
000003e0: 5e8b 31be 8a21 3c3d 7da3 583d 851c e73d
000003f0: 234c 243e d12b 383c 7cb9 d83d 2794 0c3e
